models/Mnist/server.pt (torch, 33089 bytes, 2 tensors)

weight f4 [10, 784]
000000 07 30 8c b9 be f2 9c 3c be cc f0 bc a3 50 d7 bc
       -0.00026738664 0.019158717 -0.029394504 -0.026283568
000010 c8 5e 61 bc 11 e9 1c 3c 1e 7f 39 ba 08 fa e7 3c
       -0.013755508 0.009577052 -0.0007076132 0.028317466
000020 37 b6 4f bb 17 d6 1a 3c 66 d6 30 bc a4 09 e6 bb
       -0.0031694302 0.009450457 -0.010793304 -0.007020192
000030 8a 96 03 bd 01 76 ac bc f1 fe 52 bc fc 3f 4c 3b
       -0.032125987 -0.021052362 -0.012878166 0.0031166067
000040 ca 53 67 3c aa 8c af 3c a8 58 c6 bc e1 ce 7e bc
       0.014119098 0.021429379 -0.024212196 -0.015552253
000050 9e 88 54 3c 9f f2 f2 3c 4f d8 f0 bb 48 ef da 3c
       0.012972025 0.029656706 -0.0073500047 0.026725426
000060 69 a1 bc bb 52 aa 77 3b 46 75 04 3d 6b b4 07 bd
       -0.0057565463 0.0037790728 0.032338403 -0.033131044
000070 60 2f b8 bc 42 23 14 bc b5 16 64 bc 21 c8 fc 3c
       -0.022483528 -0.009041609 -0.013921429 0.030857148
000080 72 c2 ae bc 0d 6a 5f bc a9 27 aa bc e5 fb e4 bc
       -0.021332953 -0.013636124 -0.020770865 -0.027952144
000090 5e 61 79 bc e0 41 10 3d 1f 78 cd 3c 33 8a ce 3c
       -0.015220968 0.035219073 0.025081692 0.025212383
0000a0 e8 33 59 3c af 49 a4 bb c8 14 62 3c 40 9e 9e bc
       0.013257004 -0.0050136666 0.0137989 -0.019362569
0000b0 b2 8c 51 bc 13 24 18 bc da 78 b8 3c b1 61 bd 3c
       -0.012789892 -0.0092859445 0.022518564 0.023117872
0000c0 aa 2a 09 bc 1b 88 35 3b f6 53 a4 3c 9c 11 da 3c
       -0.008371988 0.0027699533 0.020059567 0.026619725
0000d0 9f 3b 68 3c e8 18 9e 3b 3a 2a c4 3c 4a 44 ac bc
       0.014174371 0.0048247464 0.023945916 -0.021028657
0000e0 52 13 da 3b 1e d5 e2 bc c6 b6 bb bc 17 65 83 bc
       0.006655135 -0.027689513 -0.022914302 -0.016039414
0000f0 1e e3 9b 3c 61 11 99 3c 1d a6 38 bc 87 2e f6 3c
       0.019029196 0.018685045 -0.011270073 0.030051483
000100 15 f1 e7 3c 70 66 7b 3b 08 99 44 3c 95 f4 3c bc
       0.028313199 0.0038360618 0.011999376 -0.011532922
000110 9a 20 e2 bc 5c 63 07 3d 67 0c 0c bd dc 25 65 bd
       -0.027603436 0.03305374 -0.034191515 -0.05594431
000120 a9 1b 53 3c 2b db 4e bc cd 78 2e 3c 02 ba dc 3c
       0.012885013 -0.012625496 0.010648918 0.026944164
000130 0b 3f d4 3b 62 13 78 bc ab 19 78 3c 06 42 7c bc
       0.006477242 -0.01514134 0.0151428385 -0.015396601
000140 9d f8 dc bc 1b 75 10 3d 91 75 de 3c 8e ec 11 bd
       -0.026974017 0.03526793 0.02715567 -0.035625987
000150 7e 0b db 3b 7c 25 c5 bb 96 87 62 bb 43 c4 4a bc
       0.0066847196 -0.0060164314 -0.0034565679 -0.012375894
000160 2e 03 9d 3c 66 49 19 bb 20 73 a8 3c 89 44 92 3c
       0.019166555 -0.0023389696 0.020562708 0.017854946
000170 ef d9 5e 3d 95 5b 31 3d 9a 54 06 3d 63 bb 67 3d
       0.054407056 0.04330023 0.032795526 0.05657519
000180 ee 8c 57 3d 92 0a b5 3d e4 8b 25 3d b4 87 05 bd
       0.052624635 0.08839907 0.040416613 -0.03260012
000190 c2 7b 8e 3d ba aa 3f 3d d5 d1 bd bc 1d c9 3d bc
       0.06957199 0.046793677 -0.023171345 -0.011583594
0001a0 a9 b2 89 bc 38 71 83 bc 2e 6d 99 bc c4 a2 ba 3c
       -0.016808825 -0.016045198 -0.018728819 0.02278269
0001b0 d8 88 a6 3c 0d 28 03 3d c2 27 44 bc f5 9a ad 3c
       0.020328924 0.032020617 -0.01197237 0.021192053
0001c0 80 0a b2 bc b1 3e 0c 3d d1 56 c4 3c 80 80 8c bc
       -0.021733522 0.034239475 0.023967179 -0.017151117
0001d0 d1 86 c8 bb 01 ea 01 bc 88 77 3d bc d7 90 85 bb
       -0.006119587 -0.007929326 -0.011564143 -0.004076104
0001e0 4e b8 4c bd 94 36 84 3d ca 73 a2 3c 99 69 25 3d
       -0.049980454 0.064557225 0.019830603 0.04038391
0001f0 e9 35 c2 bd 9e 0f ed 3c a2 02 01 bc 79 bd b1 bc
       -0.09482939 0.02893811 -0.007874163 -0.021696793
000200 0f bd 91 bc e4 2f ae 3b 37 69 5c 3c 6d 4c a5 3d
       -0.017790345 0.0053157676 0.01345282 0.08071218
000210 09 b8 75 bc 91 59 68 3c a6 ea dc 3c 18 de 07 3d
       -0.014997491 0.014181511 0.026967358 0.03317079
000220 0d c4 29 bc 2d 94 01 bc f4 b9 9c bb 43 50 b0 3c
       -0.010361684 -0.007908863 -0.0047829095 0.021522647
000230 87 91 0a 3d 69 c2 c8 3c 77 d0 b2 3c a7 65 29 3c
       0.033830192 0.024506764 0.02182792 0.010339177
000240 a4 80 ea bc 85 96 86 bd 1f ce 47 3d 1f 07 30 bd
       -0.028625794 -0.06571678 0.048780557 -0.04297554
000250 04 a0 05 bd fc be 17 3d 37 01 16 3d 78 48 0d bb
       -0.032623306 0.03704737 0.036622252 -0.0021558087
000260 4d 6c 33 bd 14 b7 c2 3d 9c 78 0e 3e 99 5b 2b bc
       -0.043804456 0.09507576 0.13913196 -0.01045885
000270 59 3e 24 bd 4a 14 3f bc 48 d6 9a 3d 6e e1 84 3b
       -0.04009852 -0.011662552 0.07560402 0.0040551936
000280 2e 47 3e bd 06 16 cd bc fd 2a 81 3d a6 55 88 bd
       -0.0464546 -0.025034916 0.063070275 -0.06656961
000290 ab f2 74 bd 5a 94 0a 3d 7b 16 65 bc a6 bd 70 3c
       -0.05980174 0.033832885 -0.013982411 0.014693653
0002a0 68 aa 03 bd 72 b2 46 36 8a fe fc 3c 97 de 90 bb
       -0.032144934 2.9608168e-06 0.030883092 -0.004421066
0002b0 3f 48 43 3d 0c 3d 65 3d 09 50 c2 3a 4b 1a bd bb
       0.04767632 0.055966422 0.0014824878 -0.0057709566
0002c0 81 75 0b bd 38 e9 9d bd e4 54 12 3d 92 71 48 bc
       -0.034047607 -0.077104986 0.03572549 -0.0122341085
0002d0 b3 a2 34 bd af 72 f7 3d 30 35 ba 3d ea b0 98 3c
       -0.044100475 0.12082421 0.09092176 0.018639047
0002e0 dc 81 9f 3d 96 4e e0 3d e0 de ec 3d c7 89 5a 3d
       0.077884406 0.10952489 0.115659475 0.05335405
0002f0 21 26 9d bd 4b d1 2e 3d a8 4d c6 3d 54 90 a8 3d
       -0.07673288 0.042680066 0.096827805 0.082306534
000300 7d 09 08 be b3 59 d2 bc 4f a8 4a bd b6 8d 40 bc
       -0.1328487 -0.025677538 -0.049476918 -0.0117525365
000310 37 71 9b bc 97 5f 28 3c c0 4f 81 bc 1b 30 57 3c
       -0.018974883 0.010276697 -0.015785098 0.013134028
000320 07 54 ee 3c 34 83 d4 3d 1c c6 92 3c be 78 99 bd
       0.029092802 0.103765875 0.017916732 -0.07493733
000330 56 f2 d8 bd 92 4e 00 3d f1 30 fb 3a c7 02 58 3d
       -0.10593097 0.03132493 0.0019164366 0.052737024
000340 3a ae a6 bc 32 2c db 3c 62 b6 b6 3c 10 b4 05 3c
       -0.02034675 0.026754472 0.022303764 0.008160606
000350 d7 d7 01 3d 06 94 c0 3d 0e 1f 6c 3d f8 b8 83 3d
       0.03169998 0.09403233 0.057646804 0.06431764
000360 1c 05 27 3c 19 8d 76 bd ac ea 62 3d 5d 6f 28 3d
       0.010194089 -0.060193155 0.05539958 0.04112183
000370 ef 32 c8 3b bf b4 bc 38 41 7d 03 bd 2c 26 86 bc
       0.0061095874 8.998205e-05 -0.032101873 -0.016375624
000380 96 f3 ea bc 46 d6 c1 3c 5e a2 83 3b 1a 85 40 3c
       -0.028680604 0.023661744 0.0040171584 0.011750484
000390 4f af 1f 3b bf bd 27 3c fd 84 18 3c 5c b6 a2 bc
       0.0024365967 0.01023811 0.009309051 -0.019862346
0003a0 d1 f6 54 bd 18 60 65 3c 00 95 39 3b e0 18 0b bd
       -0.051993195 0.013999961 0.002831757 -0.03395927
0003b0 de 89 1e 3d b9 db 0c bc 7a 5b 82 3d 78 bc 8b 3d
       0.0387057 -0.008597308 0.06365104 0.06823057
0003c0 dd cf 19 3e 41 e8 07 3e d9 08 42 3d 1f 88 a8 bc
       0.150207 0.13272192 0.04737172 -0.02057272
0003d0 9b 2c b5 3d 47 f5 86 bc 9c f9 c8 3d bd 0f b0 3c
       0.088463984 -0.01647438 0.09813234 0.02149188
0003e0 f8 2a 5e 3d 83 9c 18 bd 7e 97 22 bd 44 8a 39 bc
       0.054240197 -0.037258636 -0.039695255 -0.011324469
0003f0 b0 10 06 3d f0 0d e2 ba dc ff bd 3c 52 3a 2f bc
       0.03273076 -0.0017246585 0.023193292 -0.010695057

bias f4 [10]
000000 8e cb fe be 83 ff 3b bf 59 da ed 3e ee aa dc 3e
       -0.49764675 -0.73436755 0.4645565 0.4309916
000010 ce 43 ff be 5f 74 14 3f cf b9 cf be 1d f5 a0 be
       -0.49856418 0.5799007 -0.40571448 -0.31437007
000020 58 97 71 3f 45 00 81 3d
       0.9437156 0.062988795
